HW1/models/model.pth (torch, 43316 bytes, 5 tensors)

net.0.weight f4 [128, 14]
000000 42 09 0e 3e 87 ab 89 bc eb b7 c5 bd 35 ee 65 bd
       0.13870719 -0.016805423 -0.0965422 -0.056135375
000010 e2 4b c4 3d 29 28 14 3e 42 5e 75 3d 31 c3 3a be
       0.09584786 0.14468445 0.059904344 -0.18238522
000020 2e 6e fc 3d 65 3e f5 bd 03 00 ad 3e f8 bc 2c 3e
       0.123257026 -0.119747914 0.3378907 0.16868961
000030 6e 5f 66 be 28 35 2d 3e 27 00 fe 3d f5 89 43 bd
       -0.22497341 0.16914809 0.12402373 -0.047738988
000040 a0 fc 56 bc 83 c2 16 be 7f 3f 28 3d a3 3d 02 3c
       -0.013121754 -0.14722638 0.04107618 0.007949266
000050 3d aa ae 3d c1 8a 90 3d 64 5d 21 be fe 6e 44 be
       0.08528564 0.07057715 -0.15758282 -0.19182965
000060 f4 c8 63 bd 35 85 0c 3e 08 cf 05 be fc a0 9e 3d
       -0.055611566 0.1372269 -0.13067257 0.07745549
000070 2b 51 0c 3d 83 67 10 3d a4 40 99 b9 d9 b3 98 ba
       0.034257095 0.035254966 -0.00029230595 -0.0011650278
000080 ed 62 dc 3b af 3d 4c 3b b2 05 5d 3b dc b9 e4 3b
       0.00672566 0.0031164696 0.0033725318 0.006980164
000090 b7 ba 2a 3d 94 35 b4 3a 85 a7 43 3d c1 80 84 3d
       0.04168197 0.0013748878 0.04776718 0.0646987
0000a0 b8 ab 33 3a dc ef 56 3d ef 2f a8 3d 73 1c c2 bc
       0.0006853896 0.05247484 0.082122676 -0.023695206
0000b0 45 5b 9a bb df b2 ee bb 17 3d 9d 3c 9a ff 23 bb
       -0.004710587 -0.0072845067 0.019194169 -0.0025024177
0000c0 6d 8e 5f bb 80 b1 d2 3b c7 90 48 bd fc f2 e2 bd
       -0.0034111992 0.006429851 -0.048966195 -0.11081502
0000d0 72 df 4a 3e f3 c9 e8 3a 81 31 d1 bd 4f 5d 65 3e
       0.198118 0.0017760381 -0.1021452 0.22398876
0000e0 62 83 ef 3c e1 42 0c 3d 73 94 66 3b 5c 10 25 bb
       0.029237453 0.03424347 0.0035183697 -0.0025186753
0000f0 7b 00 0b 3c 83 5d b8 39 d5 3d 98 bb 3d 9a 82 bb
       0.008484001 0.00035164887 -0.004646043 -0.003985672
000100 68 7c b3 3a 62 9a 84 bd fb d0 31 3d f2 c8 1d 3d
       0.0013693692 -0.06474759 0.04341219 0.038521715
000110 77 07 7c bd 33 a2 73 3d f7 c3 49 3e 61 80 11 be
       -0.061530557 0.059480857 0.19703661 -0.14209129
000120 36 2b cf 3d 97 3f 17 3e 22 4b 8d bd f4 b1 12 be
       0.10115664 0.14770351 -0.06899096 -0.14325696
000130 5b bc 37 3e d9 1a 5e be fd 35 cf bb d0 bc 99 bd
       0.17942946 -0.21689929 -0.0063235746 -0.07506716
000140 b9 90 c8 3d b8 4d 9e bc 0d 43 84 be d5 75 9f 39
       0.09793229 -0.019324169 -0.25832406 0.00030414635
000150 58 33 c5 3d 6b fa e9 3a 66 71 31 bc ed 07 14 bc
       0.09628934 0.001785112 -0.010830259 -0.009035093
000160 65 a0 17 3c 35 10 1b be df 1d 30 bb 98 41 1c 3e
       0.00925455 -0.15142901 -0.0026873273 0.15259397
000170 1a 20 52 3d 1e 59 35 be 9f 01 90 3d b9 cb c2 3b
       0.051300146 -0.17709777 0.07031559 0.005944696
000180 bc cb 26 be e8 52 75 3e 8b e5 c7 3c 97 8b d8 3c
       -0.16288656 0.23957407 0.024401447 0.02643375
000190 b7 e0 8c 3b 4b c2 16 bb 89 a0 60 3c 83 a8 48 3b
       0.004299249 -0.0023003991 0.01371015 0.003061802
0001a0 be c9 2d ba 93 70 20 3b 86 a7 1a bc b9 e5 ad bd
       -0.0006629488 0.0024481162 -0.009439355 -0.08491082
0001b0 01 73 95 3d f6 56 9a 3c ec 1b a8 bd 20 6e b5 3d
       0.07297326 0.018840294 -0.08208451 0.08858895
0001c0 66 59 ea bb 09 91 0d 3e 1b 2d 2a 3d 81 ad 70 be
       -0.0071517704 0.13824858 0.041546922 -0.23503686
0001d0 ab d7 aa 3c 10 6f c5 3d 3c 6f 00 3e a3 7b 00 bd
       0.020854792 0.09640324 0.12542433 -0.03136791
0001e0 6d 0c 94 3d db bb f9 bd 75 8b 07 3e 63 77 78 bd
       0.072289325 -0.12194034 0.13236792 -0.06066073
0001f0 ab e3 88 be c2 74 3c 3d bc 54 83 bb 2a 65 02 3e
       -0.26736197 0.046009786 -0.004007904 0.12733904
000200 7f 1e 12 3e 69 59 a4 bc a3 cf 84 be d1 24 86 bc
       0.14269446 -0.020062165 -0.25939664 -0.016374977
000210 09 21 99 bd 80 67 68 3e 08 7f a0 3d 09 27 af bd
       -0.07477004 0.22695732 0.07836729 -0.08552367
000220 21 db 36 3e be 4d b2 3c 75 c4 5f be 61 17 39 3e
       0.17857029 0.021765586 -0.21852286 0.18075325
000230 ca 54 a9 3d e7 17 b0 bc 56 40 af bb 5a c4 e9 bb
       0.08268125 -0.021495773 -0.0053482456 -0.0071340026
000240 68 50 90 3c c3 24 47 bb a8 2e 24 bb 53 5b c3 3b
       0.017616466 -0.0030386902 -0.0025052223 0.0059618144
000250 74 84 62 bd 95 36 ee bd cf 68 3c 3e c8 0a 61 bb
       -0.0553021 -0.116315044 0.18399356 -0.0034338702
000260 d7 15 e0 bd 90 cd 53 3e ef 04 4b 3e b4 fd 7f 3c
       -0.109416656 0.20683885 0.19826101 0.015624452
000270 27 14 19 bd 73 cf ce bd 64 1b f2 3c 17 c6 d4 3d
       -0.037372734 -0.100981615 0.029554076 0.10389345
000280 46 9c 67 be e8 f9 1d 3e 37 fe 10 be 09 ad af bc
       -0.22618207 0.15427363 -0.14159475 -0.021444814
000290 06 34 4c 3e a9 04 4d 3e 39 fc 3d be 39 37 79 3e
       0.1994172 0.20021309 -0.18553247 0.24337472
0002a0 64 e1 6c 3e 99 37 35 be cb 5b af bd 70 05 fa 3b
       0.23132855 -0.1769699 -0.0856243 0.0076300427
0002b0 aa 99 8a 3c 4a a1 1d 3e af bc 39 be e4 65 b9 3d
       0.016918976 0.15393558 -0.18138383 0.09052637
0002c0 e8 95 88 bc 75 bc ad bd 8e ac aa 3e 29 89 92 3d
       -0.016673043 -0.08483211 0.33334774 0.071550675
0002d0 90 bb a4 3d 15 b2 11 3e 00 e0 1a b4 65 07 30 37
       0.08043587 0.14228089 -1.4423858e-07 1.0492139e-05
0002e0 ee 92 7f b8 81 c2 4c b9 e6 3d 5d b8 ef 32 9a b7
       -6.0933577e-05 -0.00019527414 -5.2748153e-05 -1.8381948e-05
0002f0 30 3e 3c b5 49 7a 81 b7 3a 2c d7 b8 7a 4c ff b8
       -7.012595e-07 -1.5434942e-05 -0.00010260237 -0.000121735924
000300 64 c2 0a b9 4c 68 a9 b7 f0 6b c7 b7 a0 ea 5e 36
       -0.00013233122 -2.0194937e-05 -2.3772911e-05 3.3217148e-06
000310 ba 1d 95 bb 12 01 69 bb 52 fb 00 bc 22 00 03 bc
       -0.004550663 -0.0035553616 -0.007872419 -0.007995637
000320 10 a3 04 bc 0b 31 da bb 6b a3 e1 bb 64 cd e8 bb
       -0.008095518 -0.0066586784 -0.006885936 -0.0071045626
000330 d2 d1 9d b7 01 60 90 37 d0 8e 11 b4 d0 b2 a6 36
       -1.8813564e-05 1.7210843e-05 -1.3556132e-07 4.968002e-06
000340 80 df c3 35 50 c9 ab 35 40 c7 e2 bb 7e 1b 49 3e
       1.4593679e-06 1.2799082e-06 -0.006920725 0.19639394
000350 18 61 80 be 1a 9e e1 3d 0a df 1c bc ed ea 6f 3d
       -0.25074077 0.110164836 -0.009574661 0.058573652
000360 33 76 d5 3c 3d 20 65 3d 93 c0 f2 bb 34 d2 21 3c
       0.026057338 0.055938948 -0.0074082105 0.0098767765
000370 ea 31 aa ba ee 4d 13 be 84 83 44 be 91 96 97 3c
       -0.0012984846 -0.14385197 -0.19190794 0.018504413
000380 4a da 77 3d 21 b9 0e bc 81 4e d5 3d a2 ee 06 bd
       0.06051091 -0.00871113 0.10415364 -0.03294242
000390 9e 01 ba 3c 9d 71 99 bd ec 62 c5 bb 1e 5e 79 bc
       0.02270585 -0.07492373 -0.0060237553 -0.015220193
0003a0 82 7a 3b 39 e5 42 d5 bd 3f c9 e3 3d e5 06 11 3c
       0.00017879347 -0.1041315 0.11122369 0.008851741
0003b0 22 cb c3 bd 12 67 5a 3e 71 2d 82 3e 23 b4 20 be
       -0.09560229 0.2132838 0.25425294 -0.15693717
0003c0 87 f3 59 3d 79 e2 58 be 8c fd 48 3d 0a e6 94 3d
       0.05321076 -0.21180142 0.049069926 0.07270439
0003d0 47 42 64 bd bf 0c c8 3d 3d 08 5b 3c b7 a9 a4 bd
       -0.05572727 0.09768056 0.013368663 -0.08040183
0003e0 18 74 de 3d b1 06 a1 bd eb 92 0d bc a3 79 06 3e
       0.10861987 -0.078626044 -0.008640985 0.13132338
0003f0 68 0f a4 be 6f 6e 84 be b9 bf 44 be 0d d8 36 3e
       -0.32043004 -0.25865504 -0.19213761 0.17855854

net.0.bias f4 [128]
000000 6c 14 75 bf db 91 70 bf ac b8 08 bf 7d 5a 72 bf
       -0.95734286 -0.9397256 -0.53406787 -0.94669324
000010 c9 7f 51 bf 7b 76 73 bf 5c 38 70 bf a1 65 64 bf
       -0.8183561 -0.9510266 -0.93836 -0.89217573
000020 5a 3e 5e bf 5e d2 5e bf 6d 13 6e bf 20 64 35 bf
       -0.8681389 -0.87039745 -0.9299839 -0.70855904
000030 3c 52 32 bf 8e c7 0f b9 ac 22 fb 36 80 25 3e bf
       -0.6965673 -0.00013711883 7.4844193e-06 -0.7427597
000040 6c 46 8b bf 47 51 5c bf 4e 1a 82 3f 04 81 40 bf
       -1.0880866 -0.8606152 1.0164278 -0.7519686
000050 9e 02 6b bf fd 2d a4 38 47 1d b9 3f 31 97 dc 38
       -0.9180087 7.8286954e-05 1.446206 0.00010518579
000060 d4 58 2b bf 13 71 60 bf 6d 51 43 bf b5 76 78 bf
       -0.66932416 -0.8767254 -0.7629612 -0.9705613
000070 6c 25 80 bf 09 85 78 bf 76 00 72 bf 3f b8 cc 38
       -1.001142 -0.97077996 -0.94531953 9.7617965e-05
000080 1c 53 82 bf 20 d2 25 bf 6f 5a 8d bf 90 6f f0 b5
       -1.0181613 -0.6477375 -1.1043223 -1.7913862e-06
000090 e3 06 76 bf 04 ab 43 b9 d0 77 58 bf c7 d9 95 b7
       -0.9610426 -0.00018660357 -0.8455782 -1.7863595e-05
0000a0 07 28 6b bf c8 5b ca b6 53 c2 7c bf b9 a9 8c bf
       -0.9185795 -6.030754e-06 -0.98734015 -1.0989295
0000b0 56 a8 9d 3f 18 1b b5 b7 7f 3b 71 bf c2 da 71 bf
       1.2316997 -2.1589498e-05 -0.9423141 -0.9447442
0000c0 7a ab 5f 3f a0 0d ef 37 11 6f 64 bf f2 41 a8 b7
       0.8737103 2.8497365e-05 -0.89231974 -2.0057869e-05
0000d0 35 00 1b 38 c3 98 7a bf c3 63 87 bf ab e3 77 bf
       3.6955073e-05 -0.97889346 -1.057732 -0.9683177
0000e0 70 2b 71 bf 90 bd 87 b7 f2 95 68 bc 64 0a 78 bf
       -0.94206905 -1.6181526e-05 -0.014195906 -0.96890855
0000f0 61 29 82 3f cc 69 15 b7 94 42 88 bf 41 ac ce 38
       1.0168878 -8.905725e-06 -1.0645318 9.85493e-05
000100 fc 13 9a 3f 68 61 8d bf 0f 68 95 37 66 31 47 bf
       1.2037349 -1.1045351 1.781064e-05 -0.7780975
000110 4f 94 07 bf 8c a4 47 3b c4 29 81 3f df bb a9 3f
       -0.52960676 0.0030463068 1.0090871 1.3260459
000120 82 18 60 bf 97 0a 67 bf b6 bf 1f 3b 17 ea cc bc
       -0.87537396 -0.90250534 0.0024375743 -0.025013966
000130 da 71 c1 3f 66 d7 77 b8 82 67 9a bf d2 e2 80 b8
       1.511287 -5.9089994e-05 -1.2062838 -6.145764e-05
000140 b1 f4 5d bf 46 4f 84 bf 81 81 6e bf b3 4a 1e 3f
       -0.86701494 -1.0336692 -0.9316636 0.6183273
000150 ed 17 82 bf c6 d5 5c bf de f6 97 bf 05 83 79 bf
       -1.0163552 -0.8626369 -1.1872213 -0.97465545
000160 62 31 9d b7 e8 4d 72 bf 12 bc 55 bf 52 a3 56 bf
       -1.8738854e-05 -0.94650126 -0.834901 -0.8384296
000170 33 62 40 bf 89 f4 72 bf eb 69 66 bf c4 ba 71 bf
       -0.7514984 -0.9490438 -0.9000537 -0.94425607
000180 6f 22 5d bf ce 0e 64 bf d2 cb 4f bf 44 e5 71 bf
       -0.86380666 -0.8908509 -0.8117038 -0.94490457
000190 04 9f 68 38 63 f0 5b bf f4 57 67 bf 59 ee 6d bf
       5.5461205e-05 -0.85913676 -0.9036858 -0.92941815
0001a0 00 b4 0a 38 14 07 72 bf f7 e1 9e 3f e3 af 07 39
       3.3069402e-05 -0.9454205 1.2412709 0.00012940126
0001b0 aa 40 93 bf 4f 80 55 bf ad d2 78 bf a4 14 23 b8
       -1.1504109 -0.8339891 -0.97196466 -3.888145e-05
0001c0 43 14 59 bf 0f 90 83 3f 62 26 84 bf 31 b4 51 bf
       -0.8479654 1.0278338 -1.0324214 -0.81915575
0001d0 bc d8 6e bf 79 55 79 bf 3c 7b 9c 3f 5d 59 7f bf
       -0.9329946 -0.97396046 1.2225108 -0.9974573
0001e0 44 73 70 bf 1a 7b 9d bf 40 c4 72 bf be 9d 44 bf
       -0.9392588 -1.2303193 -0.94830704 -0.76803195
0001f0 c5 71 70 bf d9 a5 f3 38 d9 3e 38 bf 85 bd 88 bf
       -0.939236 0.000116180345 -0.719709 -1.0682837

net.3.weight f4 [64, 128]
000000 dd 23 33 3b c1 29 d6 3c 6f 7e c4 3c 54 aa ac 3d
       0.0027334609 0.026142957 0.02398607 0.08430925
000010 2e 67 87 3c b3 9b 4d 3d f6 22 cb 3d 33 93 b1 3c
       0.016528692 0.050197314 0.09918778 0.021676635
000020 31 d9 b2 3b bf 0f ad bb 87 32 45 3d a0 2c 25 3d
       0.00545802 -0.005281418 0.04814389 0.04032576
000030 62 f7 92 3b 91 dc 5d 36 7c ad 45 36 46 3d 45 3b
       0.0044850567 3.3059953e-06 2.9456269e-06 0.0030096336
000040 6c c8 bb 3d 1e ca 6b 3c 7c 84 83 bc e7 f8 45 3d
       0.09169087 0.01439145 -0.016054384 0.048333075
000050 59 b2 05 bd bc 20 a1 37 e6 07 72 bd 7e dd 9c 36
       -0.03264079 1.9207939e-05 -0.059089564 4.6749474e-06
000060 3c 12 d7 3b 95 75 d8 3c 35 6d 52 3b f2 e1 a9 3c
       0.006563453 0.026423255 0.003210855 0.020737622
000070 17 d7 84 3c 2f 80 7d 3b 30 81 86 3d b8 28 12 b7
       0.016215844 0.003868114 0.06567609 -8.711759e-06
000080 52 78 ca 3c 59 71 68 bc d7 bf 83 3b 38 71 85 b7
       0.024715576 -0.01418718 0.004020672 -1.5907557e-05
000090 35 e9 e7 3d 8d 78 db 37 d0 cd 18 3d 0d 39 ad 37
       0.113237776 2.616297e-05 0.037305653 2.0649773e-05
0000a0 cb 72 ca 3c 67 99 27 38 42 01 ef ba ee f8 05 3d
       0.02471294 3.995877e-05 -0.0018234628 0.0327081
0000b0 1a a3 ae bd dc 24 33 37 30 95 26 3c 9d a5 9c 3c
       -0.08527203 1.0677813e-05 0.010167405 0.01912194
0000c0 e9 11 7e bc 70 b4 2f b5 7d 48 54 ba d3 0a fe 37
       -0.0155072 -6.545515e-07 -0.000809796 3.02842e-05
0000d0 65 59 a2 37 e5 ad 56 3a 9e be 70 3c 46 c4 ce 3b
       1.9353532e-05 0.00081893645 0.014693884 0.0063100187
0000e0 38 79 01 bd 3d 49 dc b7 a6 a1 92 3c 0f 2e 08 3e
       -0.031609744 -2.6260148e-05 0.017899346 0.1329882
0000f0 2d 1f 76 bd 07 90 16 b7 48 ac 3c 3d bd 46 36 b9
       -0.060088325 -8.974231e-06 0.046062738 -0.00017383225
000100 77 4b 06 be 06 70 1e bb 1d 45 35 37 8b 7a cf 3c
       -0.13114725 -0.0024175658 1.0804532e-05 0.025326988
000110 e2 e9 91 3c 55 02 3c bb de 89 f1 bc 56 03 c5 ba
       0.01781172 -0.0028687913 -0.029484686 -0.0015030901
000120 c5 d4 e9 3c 03 e8 46 3d f4 91 fc bc 0c 5f 77 3b
       0.02854384 0.048561107 -0.030831315 0.0037745861
000130 5f 11 f1 bd eb 5e 81 b8 55 dd cd 3c 0a c0 15 38
       -0.117708914 -6.168879e-05 0.025129953 3.570322e-05
000140 92 6d 80 ba 53 2b 4b 3c 4c 2d ae 3d 91 a6 6f bc
       -0.000979828 0.012400466 0.085047334 -0.014627115
000150 b4 5c 0a bb 2a 1d 71 3b b9 3e b3 3c 24 7a 12 3d
       -0.0021112384 0.0036791065 0.021880494 0.035761014
000160 ca e9 42 b7 be 1b 77 3b 07 b8 02 3d ee c8 6e bb
       -1.1617734e-05 0.0037705745 0.031913783 -0.0036435681
000170 05 db 4c 3d ae ad 52 3d 05 39 96 bc 6f 6b 5a 3d
       0.05001356 0.051435165 -0.018337736 0.053325113
000180 c9 52 1e bc 49 50 45 3d cb dc 76 3c 49 3c a8 3d
       -0.009663292 0.04817227 0.01506729 0.082146235
000190 d9 67 ad b7 fd 11 ba bc fc d4 ad 3d ca 0e 8c 3d
       -2.0671565e-05 -0.022713656 0.08487889 0.06838758
0001a0 1e 82 b9 b7 a8 fc d6 3b 72 c1 29 be 53 a6 57 b8
       -2.211431e-05 0.0065608807 -0.165777 -5.1414896e-05
0001b0 66 ad 88 bb f7 b6 f4 bb 44 01 8d bc 3c fb 05 b7
       -0.0041710613 -0.0074681 -0.017212518 -7.985913e-06
0001c0 2c 3b 9b b9 e5 21 a4 bd 5b cf 5c 3d 27 a2 ee bb
       -0.0002960799 -0.08014277 0.053908687 -0.0072825137
0001d0 b8 46 c9 3c 74 91 02 3e 62 55 82 bd c6 7f 27 3d
       0.024569854 0.12750798 -0.06363942 0.04089334
0001e0 84 26 71 3d b2 49 ac 3c 28 d5 e2 bb cb 56 e4 bb
       0.058874622 0.021031234 -0.006922383 -0.0069683543
0001f0 95 1d 9c 3d e8 76 20 b9 fc 55 7d 3c 5e d8 c3 3d
       0.0762283 -0.00015303085 0.015462395 0.09562753
000200 a6 3c c7 bb fb 8a 62 3b c5 26 a3 3c 7e dd ea 3c
       -0.006080228 0.0034567702 0.019915948 0.028670069
000210 55 22 3f 3d c0 9c af 3b d8 3f cf b9 da 75 a6 3c
       0.0466636 0.005359262 -0.00039529684 0.020319868
000220 ae a9 9e bb f6 b7 92 3b 0c 55 9c 3c 45 db 2f 3d
       -0.0048420047 0.0044774963 0.019083522 0.04293372
000230 b4 6d 09 3d 80 4a b4 37 8a 4c 84 b8 b4 c5 49 3c
       0.033551887 2.1492364e-05 -6.308507e-05 0.0123152025
000240 08 63 13 3d de 2a a2 3c a5 5d c9 3a e0 23 00 3d
       0.035983115 0.019795831 0.0015362991 0.031284213
000250 e5 78 38 3b 18 1a ac 37 76 ed c4 bd 92 f0 9b b7
       0.002814823 2.0516149e-05 -0.096156046 -1.8589464e-05
000260 03 f2 8d 3b bc af 1f 3d fb 7a 97 3c f4 c0 12 3d
       0.0043318286 0.038985953 0.018491259 0.035828546
000270 b5 ea 37 bc 65 ea 2d 3d 11 b3 fa 3c f4 73 c1 b7
       -0.011225392 0.042459864 0.030602964 -2.3061388e-05
000280 6f 76 46 3c 1a 98 3b 3c 23 22 92 bc 2e 77 76 b7
       0.012113198 0.011449838 -0.017838543 -1.4690491e-05
000290 aa af 81 3a 78 3c b7 3b 83 34 c4 3b 31 e8 e4 36
       0.0009894271 0.0055919252 0.005987705 6.82196e-06
0002a0 62 1c 4d 3a a0 a8 73 b5 ed f2 35 3b 09 d8 9f 3d
       0.0007824359 -9.0769936e-07 0.0027763203 0.07804877
0002b0 bf 7c d3 bd e7 01 ea 37 cd 7e f7 3b d0 74 66 3c
       -0.10326528 2.789586e-05 0.0075529576 0.014065936
0002c0 51 49 4f 3b 10 37 a0 35 07 58 85 3b 56 71 09 37
       0.0031629393 1.1936954e-06 0.0040693316 8.192224e-06
0002d0 d2 24 34 38 20 b5 15 3d ef e4 87 3d 83 9e 2a 3c
       4.2949636e-05 0.036549687 0.066354625 0.010413769
0002e0 e5 f0 f3 bb c8 1a 9f b8 ec 7c 34 3c 9b 57 32 3d
       -0.0074444884 -7.586699e-05 0.011016112 0.04354058
0002f0 b7 a7 30 bd 2e 63 86 36 b9 23 15 3d c8 bb b7 b6
       -0.043128695 4.0050572e-06 0.03641102 -5.4756856e-06
000300 e8 54 be bd b3 ca 55 bc a8 8a 1c b8 1f 35 a4 b7
       -0.09293538 -0.013048816 -3.7322432e-05 -1.957506e-05
000310 11 8c ee 3c e2 fc 2f 3b 97 2f 8e bb ac aa 1a bd
       0.029119523 0.002685361 -0.0043391692 -0.03776042
000320 c8 16 0d 3d 92 17 2e 3d 9c 5e 8a bb 1b 0d 0a bc
       0.034445554 0.042502947 -0.004222704 -0.008425976
000330 be f4 09 be 5f a6 08 39 7c fe 05 3d a3 ff b3 b7
       -0.13472268 0.00013031949 0.0327134 -2.1457503e-05
000340 e8 bd 8a 3c 9e c4 86 3d 60 57 fc 3c 08 39 77 bc
       0.016936257 0.065804705 0.030803382 -0.015089281
000350 ab 50 40 3d 46 fd b0 3c 57 16 df 3b 01 c7 68 3c
       0.04695193 0.021605145 0.006808083 0.0142076025
000360 18 f9 8d 34 21 17 c8 bb 38 17 8e 3c 4b 31 25 bb
       2.6444536e-07 -0.006106273 0.017345056 -0.0025206383
000370 09 1c 90 3c ff 0c ad 3c 98 8c 37 3c 86 b7 5e 3b
       0.017591493 0.021124361 0.011202954 0.00339839
000380 d7 47 96 3b 63 87 c1 3c fb 2a 9d 3d 1a cb d1 3b
       0.0045862007 0.023624128 0.076742135 0.0064023854
000390 1f 48 3c 37 12 eb 94 3d 46 3c 0b 3d 08 d7 84 3d
       1.1222465e-05 0.072713986 0.033993028 0.064863265
0003a0 89 38 43 37 51 80 20 bc d6 73 21 be 9c cb 07 38
       1.1636069e-05 -0.009796218 -0.15766844 3.2376134e-05
0003b0 7e 61 25 3c ea a4 49 3d 80 75 c6 3c 2d c1 b6 37
       0.010094045 0.04922954 0.02422595 2.1786045e-05
0003c0 f1 03 92 3c ed 46 ed bc 27 05 85 bb cb 34 54 3c
       0.017824145 -0.028964484 -0.004059452 0.01295204
0003d0 a8 65 ff ba 60 39 9d 3c a3 d1 3c bd ab 53 d7 3c
       -0.0019485252 0.019192398 -0.046098363 0.026285013
0003e0 12 28 be 3c ef 27 84 3d 61 75 d1 3b 5a 7a 1d bb
       0.023212466 0.06452929 0.0063921665 -0.0024029226
0003f0 19 b0 78 3c 37 40 9a b8 a0 a9 1f 3d c2 4d 5a 3d
       0.015178704 -7.355253e-05 0.038980126 0.053296812

net.3.bias f4 [64]
000000 56 31 91 3f cf f6 95 3f c0 3f 12 3f f2 81 9f 3f
       1.1343181 1.1715945 0.57128525 1.2461531
000010 b1 8b 90 3f d3 d2 18 3f 78 d7 97 3f d7 24 8f 3f
       1.129263 0.5969669 1.1862631 1.1183118
000020 f8 a1 89 3f fd 65 91 3f fa 06 28 3f 83 41 88 3f
       1.0752554 1.1359249 0.65635645 1.0644993
000030 a8 c3 16 3f b8 c2 8e 3f 17 03 9e 3f f0 63 20 3f
       0.588923 1.1153173 1.2344693 0.6265249
000040 b0 b4 8c 3f 59 29 7e 3e 61 f1 17 3e 8d 46 8b 3e
       1.0992641 0.2482046 0.14838172 0.27202263
000050 09 6c 9f 3f 48 d2 83 3f 45 e0 c1 3e 0f b8 ed 3e
       1.2454845 1.0298548 0.37866417 0.46429488
000060 a5 f6 ab 3f f0 b9 8b 3f 56 86 8e 3f 33 c5 90 3f
       1.3434645 1.0916119 1.1134746 1.131018
000070 8b 43 7c 3f cd 80 0c 3f 81 aa 89 3f 3c 87 a2 3e
       0.9854056 0.54884034 1.0755159 0.317438
000080 6d b5 8e 3f c9 5e 90 3f 2d 42 27 3f e1 20 a0 3f
       1.1149117 1.1278926 0.6533535 1.2510034
000090 1b b5 8b 3f 8f 91 38 3e 70 a5 98 3f b5 62 8d 3f
       1.0914644 0.18024276 1.1925488 1.1045748
0000a0 75 1a 9a 3f 01 5f 48 3f 4f 3e 90 3f fc c3 9f 3f
       1.2039324 0.78269964 1.1269015 1.2481685
0000b0 49 8c 37 3f 6c 2f 9c 3f 32 0b 84 3f 44 78 2d 3f
       0.71698433 1.2201972 1.0315917 0.67761636
0000c0 e6 42 a9 3f f6 78 9c 3f fd cc 8c 3f c8 eb ab 3f
       1.3223541 1.2224414 1.1000057 1.343133
0000d0 4b 79 99 3f 27 32 d6 3e d3 50 8b 3f 34 dd 1f 3f
       1.1990141 0.41835138 1.088404 0.62446904
0000e0 8b d1 1d 3f 18 0a a7 3f b4 5a 85 3f d5 33 e0 3e
       0.6164786 1.3049955 1.0418305 0.43789545
0000f0 e1 c5 9d 3f 84 fe 59 3f 44 f7 95 3f eb 02 e6 3e
       1.2326013 0.85153985 1.1716084 0.449241

net.6.weight f4 [1, 64]
000000 e3 b7 d5 3d db c5 e2 3d 54 7b b3 3d 12 05 02 3e
       0.10435464 0.11072894 0.08763757 0.12697247
000010 6a eb f7 3d 74 76 8c bf 2a 21 ca 3d 1f dd 19 3e
       0.121054485 -1.0973649 0.09869607 0.15025757
000020 90 8b 0a 3e ea 19 15 3e e4 d1 b0 3d 6b 15 ee 3d
       0.13529801 0.14560667 0.086337835 0.11625179
000030 ca e9 b3 3d fd 71 f0 3d 42 66 ec 3d 68 24 1a bf
       0.08784826 0.117404915 0.11542942 -0.602118
000040 7d 55 d7 3d ac cc e2 be 17 b0 82 be 1e 0e cc be
       0.105143525 -0.44296777 -0.2552497 -0.3985452
000050 73 03 03 3e 52 a1 c2 3d d7 1a 20 bf d3 4c 08 bf
       0.12794285 0.09503426 -0.62540954 -0.53242224
000060 17 ae 09 3e 8f 97 06 3e 76 eb 21 3e 83 1d 46 3e
       0.13445316 0.13143753 0.15812477 0.19347195
000070 f5 a9 c5 3d b7 48 7d bf 3d bf 12 3e 35 52 94 3d
       0.09651557 -0.9893908 0.14330764 0.07242242
000080 89 fa 01 3e b7 1d 44 3e b0 79 b1 3d de 7c 5d 3e
       0.12693228 0.1915196 0.08665788 0.21629664
000090 af 5c 2c 3e 4c 86 ab be bf f7 2f 3e 7f 1b 39 3e
       0.16832231 -0.33500898 0.17184351 0.18076895
0000a0 1c f5 04 3e 6d 23 c8 3d 59 ea 04 3e 19 3a f3 3d
       0.12984127 0.09772382 0.12980022 0.118763156
0000b0 66 6e 4b bf 99 67 97 3e 41 fd 02 3e fe 71 58 bf
       -0.7946533 0.29571226 0.12791921 -0.8454894
0000c0 93 70 ed 3d 37 aa 3f 3e 93 dd 13 3e 78 6d fc 3d
       0.115937375 0.18717276 0.14439993 0.12325567
0000d0 40 2e 12 3e 4e d3 f7 be 23 94 25 3e 33 8c 5c bf
       0.14275455 -0.484034 0.16169791 -0.8615143
0000e0 e5 fa 70 bf 79 ec ef 3d e0 92 e2 3d b5 cc 43 bf
       -0.94132835 0.117150255 0.110631704 -0.76484233
0000f0 f7 e8 fe 3d 94 61 cc 3d 15 a6 07 3e ff b9 97 3d
       0.12446778 0.09979549 0.13246949 0.07408523
